TutorialPytorch-main/2.12 模型可视化/block.onnx (onnx, 8790 bytes, 6 tensors)

net.0.bias f4 [64]
0	0x3d1a1d28	0.03762546
1	0x3de8c6fa	0.11366077
2	0xbdbbbfd5	-0.091674484
3	0x3e0286bb	0.12746708
4	0x3d69092c	0.056893513
5	0x3e0e692b	0.13907306
6	0xbe411325	-0.1885496
7	0x3d857e02	0.06518175
8	0xbe30bc97	-0.17259441
9	0x3e14504d	0.14483757
10	0xbd96c110	-0.073610425
11	0x3dcd06c6	0.100110576
12	0x3d897b8e	0.06713019
13	0xbdb0377e	-0.08604334
14	0xbe085d3e	-0.13316819
15	0xbd541374	-0.051776364
16	0x3c0c53b0	0.0085648745
17	0xbe21e504	-0.15810019
18	0x3d466974	0.04844041
19	0xbd952171	-0.07281769
20	0xbd5a189c	-0.053246126
21	0x3d773dec	0.060361788
22	0xbd062fb8	-0.032760352
23	0x3e2fb4bb	0.17158787
24	0xbe3789f2	-0.17923716
25	0xbcbe7478	-0.023248896
26	0x3e3e07c1	0.18557645
27	0xbe1b5e5f	-0.15172718
28	0xbe150728	-0.14553511
29	0x3e398b69	0.18119587
30	0xbdae7224	-0.08517864
31	0x3e436ddf	0.19084881
32	0xbde3c80a	-0.11122139
33	0x3e279045	0.16363628
34	0x3df670be	0.120332226
35	0x3d030cd0	0.03199464
36	0x3d96ec62	0.07369305
37	0xbdecff74	-0.11572161
38	0xbd1f5154	-0.03889592
39	0x3dccd92e	0.10002361
40	0x3d9611a6	0.07327585
41	0x3d3f3424	0.046680585
42	0xbe1dfc26	-0.15428218
43	0x3e14f76b	0.14547507
44	0xbdfa7b68	-0.12230569
45	0xbe0dbb78	-0.13841045
46	0xbe37ccaf	-0.17949174
47	0x3d1ab024	0.037765637
48	0x3e342417	0.17591892
49	0xbde84296	-0.11340825
50	0x3e234d73	0.15947513
51	0xbd2b096c	-0.041757032
52	0x3e111c6b	0.14170997
53	0x3ca59960	0.020214736
54	0x3e28b323	0.16474585
55	0xbdf62e8c	-0.12020597
56	0xbe319f2d	-0.17345877
57	0x3d8ba486	0.0681849
58	0x3e0b198f	0.13583969
59	0xbe44e3f1	-0.19227578
60	0x3c633c90	0.01386942
61	0xbc8c98f0	-0.01716277
62	0x3e07087b	0.13186829
63	0xbde4c95c	-0.11171219

net.0.weight f4 [64, 3, 3, 3]
0	0xbddf4647	-0.10902076
1	0x3df13d22	0.11779238
2	0x3c8dab60	0.017293632
3	0xbced39f0	-0.02895829
4	0x3ac9b100	0.0015387833
5	0x3d1932b4	0.03740187
6	0x3cd0ed48	0.02550377
7	0x3ded4866	0.115860745
8	0xbc542e10	-0.012950435
9	0x3e053f71	0.13012482
10	0xbdd90515	-0.105966724
11	0x3d89396a	0.06700404
12	0x3cbda898	0.02315168
13	0xbe08b4d8	-0.13350236
14	0x3e1d5175	0.15363105
15	0xbdf9722d	-0.121799804
16	0xbe1f0fa0	-0.15533304
17	0x3cd5e628	0.026110724
18	0x3e1206fd	0.14260478
19	0x3b942d20	0.004521981
20	0x3e1288fd	0.1431007
21	0xbb2b2b40	-0.0026118308
22	0xbd3b5c70	-0.045742452
23	0xbdd64a36	-0.10463373
24	0x3e18659d	0.14882512
25	0x3e01d845	0.12680157
26	0x3dca4c36	0.09877817
27	0xbd4bc2e8	-0.049746424
28	0x3cfe6458	0.031053707
29	0xbbb25280	-0.0054419637
30	0x3e3825fd	0.17983241
31	0xbc7646f0	-0.015031561
32	0xbe22ff96	-0.15917811
33	0x3e1640a9	0.14673103
34	0xbc98dfb0	-0.01866135
35	0xbe11a7c7	-0.14224158
36	0x3d28b5fc	0.04118918
37	0xbd446264	-0.047945395
38	0xbe1793be	-0.14802453
39	0xbc1f7140	-0.009731591
40	0x3d3349c8	0.043771535
41	0xbddb40af	-0.10705697
42	0x3c8dbfa8	0.017303303
43	0x3d35ea34	0.044412807
44	0xbe1ccf90	-0.15313554
45	0xbcec7030	-0.028862089
46	0xbd255650	-0.040365517
47	0xbd116e74	-0.035505727
48	0xbd3df908	-0.046380073
49	0xbe3bbc8d	-0.18333645
50	0x3ddd85ba	0.10816522
51	0x3e12f5ef	0.14351629
52	0x3dbd92ee	0.0925654
53	0xbdf95e76	-0.1217622
54	0x3d833e8e	0.06408416
55	0xbdfde3d5	-0.12396971
56	0x3d97a1e2	0.074039236
57	0xbe18f113	-0.14935713
58	0xbe3d6756	-0.18496451
59	0xbd9e21f3	-0.07721319
60	0x3c936788	0.017993703
61	0x3e3922cb	0.18079679
62	0xbe36b9e8	-0.17844355
63	0xbcdca9f0	-0.026936501
64	0x3e18030b	0.14844911
65	0xbd063e20	-0.03277409
66	0xbdbefe85	-0.093258895
67	0x3e0dc24f	0.13843654
68	0x3e2e174f	0.17001079
69	0xbc89a7e0	-0.016803682
70	0xbd6e9f50	-0.0582574
71	0x3e38a8b1	0.180331
72	0x3d024fc0	0.031814337
73	0x3e18b2d1	0.14911963
74	0x3d9b91aa	0.075961426
75	0x3e365f01	0.17809679
76	0x3dafb0d2	0.08578648
77	0xbe10c5d1	-0.14137961
78	0xbd60bc68	-0.05486718
79	0xbcc670e8	-0.02422376
80	0x3dd26cbe	0.10274647
81	0x3c99a280	0.018754244
82	0xbdd0cd9d	-0.101954676
83	0xbdc296e3	-0.095014356
84	0xbdb608f6	-0.08888428
85	0x3e3ce8cb	0.18448178
86	0xbe349acd	-0.17637177
87	0x3d98901e	0.07449363
88	0x3d845246	0.06461005
89	0x3cd33b98	0.025785252
90	0xbd83b324	-0.06430653
91	0x3e16dd07	0.14732753
92	0x3df7d24a	0.12100656
93	0x3e15a6e5	0.14614446
94	0x3d2c5550	0.042073548
95	0xbbd5e940	-0.0065280497
96	0x3da0bec6	0.07848887
97	0x3dce4486	0.100716636
98	0xbe084960	-0.1330924
99	0xbe0530ec	-0.13006943
100	0x3d872846	0.065994784
101	0x3e1d6f59	0.15374507
102	0xbe3ca01a	-0.18420449
103	0x3e03f001	0.12884523
104	0x3d08c234	0.03338833
105	0x3db7a9fe	0.0896797
106	0x3e362d97	0.17790829
107	0x3e03bd87	0.12865268
108	0x3ac7ae80	0.00152345
109	0x3bd10700	0.0063790083
110	0xbb8067e0	-0.003918633
111	0xb90f5800	-0.00013670325
112	0x3e1f5f69	0.1556374
113	0x3d7a9d7c	0.061185345
114	0xbd56bbdc	-0.05242525
115	0x3c8911c0	0.016732097
116	0x3d83cb12	0.06435217
117	0x3d4397e8	0.04775229
118	0xbd46c70c	-0.04852967
119	0x3d220bb8	0.039561957
120	0xbdb2c97e	-0.08729838
121	0xbbd24500	-0.006416917
122	0xbe1d5667	-0.15364991
123	0x3e323c1f	0.17405747
124	0xbde5e321	-0.11224962
125	0x3d3e9604	0.046529785
126	0xbe427147	-0.18988524
127	0xbd87b05e	-0.06625436
128	0xbcfbbc08	-0.030729309
129	0x3c9a1da8	0.01881297
130	0xbe0e41ae	-0.13892242
131	0x3e3d4ad3	0.18485574
132	0x3de9ea7a	0.11421676
133	0x3cbadd98	0.022810742
134	0x3dfe10ba	0.12405534
135	0x3e1ab691	0.15108706
136	0x3b21aa80	0.0024668276
137	0x3dfc3386	0.12314515
138	0xbe43a62d	-0.1910636
139	0xbe339407	-0.17536937
140	0xbe04c2aa	-0.12964883
141	0xbd56fd8c	-0.052487895
142	0xbe1562aa	-0.14588419
143	0x3d06deb8	0.032927245
144	0x3e2468e7	0.16055642
145	0xbde9b2cb	-0.11411055
146	0xbd8d9cba	-0.06914659
147	0xbe2f909f	-0.17145012
148	0xbe0d528c	-0.1380102
149	0xbcb520b8	-0.022110328
150	0xbe1437f4	-0.1447447
151	0x3e419aab	0.18906657
152	0xbbdf4700	-0.006813884
153	0x3e136cf1	0.14397027
154	0x3e2d2607	0.16909038
155	0x3dfd118a	0.12356861
156	0xbdeccf76	-0.115630075
157	0x3dd0b76e	0.101912364
158	0xbd6e60cc	-0.05819778
159	0xbdd7d307	-0.10538297
160	0xbd20b12c	-0.039231464
161	0x3d61bfbc	0.055114493
162	0x3c7ca530	0.015420243
163	0x3e26420b	0.16236131
164	0x3e38ec8f	0.1805899
165	0x3e16218f	0.14661239
166	0xbd0bf68c	-0.034170672
167	0xbd8b5836	-0.06803934
168	0x3e3fe0b3	0.1873806
169	0x3ddee8ee	0.108842716
170	0xbd3c4a54	-0.045969322
171	0x3e2440e3	0.16040377
172	0xbdb4bc49	-0.08824975
173	0xbdc8bce4	-0.09801653
174	0xbd119d5c	-0.03555046
175	0xbda48b11	-0.08034337
176	0x3e1c57f5	0.15267928
177	0x3db564ea	0.088571385
178	0x3ca023a8	0.019548252
179	0x3e1538cb	0.14572446
180	0xbe06d2b7	-0.13166319
181	0x3bfe9d20	0.0077701956
182	0xbd2454f8	-0.040120095
183	0x3c0b5bf0	0.008505806
184	0xbc9f5e28	-0.019454077
185	0x3e2317f5	0.15927108
186	0x3d2c396c	0.04204695
187	0x3dac4c82	0.0841303
188	0xbdbb94a4	-0.0915921
189	0xbe177c1e	-0.1479344
190	0xbd99aa03	-0.0750313
191	0xbd9235ae	-0.07139145
192	0xbe167890	-0.14694428
193	0x3d59be24	0.053159848
194	0xbd9da4ad	-0.07697425
195	0xbd8f318b	-0.069918714
196	0xbda0e8ab	-0.07856878
197	0xbd16b194	-0.036790445
198	0x3d0357d8	0.032066196
199	0xbc6e79e0	-0.014555424
200	0xbb9ec9e0	-0.0048458427
201	0x3e39a955	0.18131001
202	0x3e32b23d	0.17450805
203	0xbc385650	-0.011251047
204	0xbdf0adab	-0.117518745
205	0x3dcbceae	0.099515304
206	0xbe0f9c62	-0.14024499
207	0x3e14cf9d	0.14532323
208	0xbce04870	-0.02737829
209	0xbe324206	-0.17407998
210	0x3dc609ba	0.09669824
211	0xbe1aedda	-0.15129796
212	0xbe0ab1ff	-0.13544463
213	0xbd8b21f1	-0.06793583
214	0xbdec485a	-0.115372375
215	0xbd9def15	-0.07711617
216	0xbc842400	-0.016130447
217	0xbdccb9c7	-0.09996372
218	0xbbc75800	-0.0060834885
219	0xbce920c0	-0.028458
220	0xbcefe548	-0.029284135
221	0xbdd41154	-0.103548676
222	0x3e05b8e9	0.13058819
223	0xbd3dd568	-0.0463461
224	0xbdc2df93	-0.095153
225	0xbe258a38	-0.16166008
226	0xbc8dab68	-0.017293647
227	0x3d01a884	0.03165485
228	0x3d7fc304	0.06244184
229	0x3e198463	0.14991908
230	0x3c3e6c80	0.011622548
231	0xbe33f1ed	-0.17572756
232	0x3b287800	0.0025706291
233	0xbd56836c	-0.052371427
234	0x3deb592e	0.11491619
235	0x3c642570	0.013924941
236	0x3ddd7a12	0.10814299
237	0x3dd2a4b6	0.10285322
238	0xbe3f33a0	-0.18672037
239	0x3e06e6f3	0.13174038
240	0x3e2caba3	0.16862349
241	0x3e374b53	0.17899828
242	0x3d9ffafe	0.07811545
243	0xbe3196f4	-0.1734274
244	0x3cd19108	0.025581852
245	0xbca4db48	-0.020124093
246	0x3e1df01d	0.15423627
247	0x3e1da6ad	0.15395613
248	0x3c4d7420	0.012539893
249	0x3e1bae2d	0.15203162
250	0xbe07b3a6	-0.13252124
251	0xbd30c5a8	-0.04315725
252	0x3d903606	0.07041554
253	0xbdb52476	-0.08844845
254	0xbde26580	-0.11054516
255	0x3dd381ee	0.103275165

net.1.bias f4 [64]
0	0x00000000	0.0
1	0x00000000	0.0
2	0x00000000	0.0
3	0x00000000	0.0
4	0x00000000	0.0
5	0x00000000	0.0
6	0x00000000	0.0
7	0x00000000	0.0
8	0x00000000	0.0
9	0x00000000	0.0
10	0x00000000	0.0
11	0x00000000	0.0
12	0x00000000	0.0
13	0x00000000	0.0
14	0x00000000	0.0
15	0x00000000	0.0
16	0x00000000	0.0
17	0x00000000	0.0
18	0x00000000	0.0
19	0x00000000	0.0
20	0x00000000	0.0
21	0x00000000	0.0
22	0x00000000	0.0
23	0x00000000	0.0
24	0x00000000	0.0
25	0x00000000	0.0
26	0x00000000	0.0
27	0x00000000	0.0
28	0x00000000	0.0
29	0x00000000	0.0
30	0x00000000	0.0
31	0x00000000	0.0
32	0x00000000	0.0
33	0x00000000	0.0
34	0x00000000	0.0
35	0x00000000	0.0
36	0x00000000	0.0
37	0x00000000	0.0
38	0x00000000	0.0
39	0x00000000	0.0
40	0x00000000	0.0
41	0x00000000	0.0
42	0x00000000	0.0
43	0x00000000	0.0
44	0x00000000	0.0
45	0x00000000	0.0
46	0x00000000	0.0
47	0x00000000	0.0
48	0x00000000	0.0
49	0x00000000	0.0
50	0x00000000	0.0
51	0x00000000	0.0
52	0x00000000	0.0
53	0x00000000	0.0
54	0x00000000	0.0
55	0x00000000	0.0
56	0x00000000	0.0
57	0x00000000	0.0
58	0x00000000	0.0
59	0x00000000	0.0
60	0x00000000	0.0
61	0x00000000	0.0
62	0x00000000	0.0
63	0x00000000	0.0

net.1.running_mean f4 [64]
0	0x00000000	0.0
1	0x00000000	0.0
2	0x00000000	0.0
3	0x00000000	0.0
4	0x00000000	0.0
5	0x00000000	0.0
6	0x00000000	0.0
7	0x00000000	0.0
8	0x00000000	0.0
9	0x00000000	0.0
10	0x00000000	0.0
11	0x00000000	0.0
12	0x00000000	0.0
13	0x00000000	0.0
14	0x00000000	0.0
15	0x00000000	0.0
16	0x00000000	0.0
17	0x00000000	0.0
18	0x00000000	0.0
19	0x00000000	0.0
20	0x00000000	0.0
21	0x00000000	0.0
22	0x00000000	0.0
23	0x00000000	0.0
24	0x00000000	0.0
25	0x00000000	0.0
26	0x00000000	0.0
27	0x00000000	0.0
28	0x00000000	0.0
29	0x00000000	0.0
30	0x00000000	0.0
31	0x00000000	0.0
32	0x00000000	0.0
33	0x00000000	0.0
34	0x00000000	0.0
35	0x00000000	0.0
36	0x00000000	0.0
37	0x00000000	0.0
38	0x00000000	0.0
39	0x00000000	0.0
40	0x00000000	0.0
41	0x00000000	0.0
42	0x00000000	0.0
43	0x00000000	0.0
44	0x00000000	0.0
45	0x00000000	0.0
46	0x00000000	0.0
47	0x00000000	0.0
48	0x00000000	0.0
49	0x00000000	0.0
50	0x00000000	0.0
51	0x00000000	0.0
52	0x00000000	0.0
53	0x00000000	0.0
54	0x00000000	0.0
55	0x00000000	0.0
56	0x00000000	0.0
57	0x00000000	0.0
58	0x00000000	0.0
59	0x00000000	0.0
60	0x00000000	0.0
61	0x00000000	0.0
62	0x00000000	0.0
63	0x00000000	0.0

net.1.running_var f4 [64]
0	0x3f800000	1.0
1	0x3f800000	1.0
2	0x3f800000	1.0
3	0x3f800000	1.0
4	0x3f800000	1.0
5	0x3f800000	1.0
6	0x3f800000	1.0
7	0x3f800000	1.0
8	0x3f800000	1.0
9	0x3f800000	1.0
10	0x3f800000	1.0
11	0x3f800000	1.0
12	0x3f800000	1.0
13	0x3f800000	1.0
14	0x3f800000	1.0
15	0x3f800000	1.0
16	0x3f800000	1.0
17	0x3f800000	1.0
18	0x3f800000	1.0
19	0x3f800000	1.0
20	0x3f800000	1.0
21	0x3f800000	1.0
22	0x3f800000	1.0
23	0x3f800000	1.0
24	0x3f800000	1.0
25	0x3f800000	1.0
26	0x3f800000	1.0
27	0x3f800000	1.0
28	0x3f800000	1.0
29	0x3f800000	1.0
30	0x3f800000	1.0
31	0x3f800000	1.0
32	0x3f800000	1.0
33	0x3f800000	1.0
34	0x3f800000	1.0
35	0x3f800000	1.0
36	0x3f800000	1.0
37	0x3f800000	1.0
38	0x3f800000	1.0
39	0x3f800000	1.0
40	0x3f800000	1.0
41	0x3f800000	1.0
42	0x3f800000	1.0
43	0x3f800000	1.0
44	0x3f800000	1.0
45	0x3f800000	1.0
46	0x3f800000	1.0
47	0x3f800000	1.0
48	0x3f800000	1.0
49	0x3f800000	1.0
50	0x3f800000	1.0
51	0x3f800000	1.0
52	0x3f800000	1.0
53	0x3f800000	1.0
54	0x3f800000	1.0
55	0x3f800000	1.0
56	0x3f800000	1.0
57	0x3f800000	1.0
58	0x3f800000	1.0
59	0x3f800000	1.0
60	0x3f800000	1.0
61	0x3f800000	1.0
62	0x3f800000	1.0
63	0x3f800000	1.0

net.1.weight f4 [64]
0	0x3f800000	1.0
1	0x3f800000	1.0
2	0x3f800000	1.0
3	0x3f800000	1.0
4	0x3f800000	1.0
5	0x3f800000	1.0
6	0x3f800000	1.0
7	0x3f800000	1.0
8	0x3f800000	1.0
9	0x3f800000	1.0
10	0x3f800000	1.0
11	0x3f800000	1.0
12	0x3f800000	1.0
13	0x3f800000	1.0
14	0x3f800000	1.0
15	0x3f800000	1.0
16	0x3f800000	1.0
17	0x3f800000	1.0
18	0x3f800000	1.0
19	0x3f800000	1.0
20	0x3f800000	1.0
21	0x3f800000	1.0
22	0x3f800000	1.0
23	0x3f800000	1.0
24	0x3f800000	1.0
25	0x3f800000	1.0
26	0x3f800000	1.0
27	0x3f800000	1.0
28	0x3f800000	1.0
29	0x3f800000	1.0
30	0x3f800000	1.0
31	0x3f800000	1.0
32	0x3f800000	1.0
33	0x3f800000	1.0
34	0x3f800000	1.0
35	0x3f800000	1.0
36	0x3f800000	1.0
37	0x3f800000	1.0
38	0x3f800000	1.0
39	0x3f800000	1.0
40	0x3f800000	1.0
41	0x3f800000	1.0
42	0x3f800000	1.0
43	0x3f800000	1.0
44	0x3f800000	1.0
45	0x3f800000	1.0
46	0x3f800000	1.0
47	0x3f800000	1.0
48	0x3f800000	1.0
49	0x3f800000	1.0
50	0x3f800000	1.0
51	0x3f800000	1.0
52	0x3f800000	1.0
53	0x3f800000	1.0
54	0x3f800000	1.0
55	0x3f800000	1.0
56	0x3f800000	1.0
57	0x3f800000	1.0
58	0x3f800000	1.0
59	0x3f800000	1.0
60	0x3f800000	1.0
61	0x3f800000	1.0
62	0x3f800000	1.0
63	0x3f800000	1.0
